Model Evaluation Summary:
Model: "sequential"
┏━━━━━━━━━━━━━━━━━━━━━━━━━━━━━━━━━━━━━━┳━━━━━━━━━━━━━━━━━━━━━━━━━━━━━┳━━━━━━━━━━━━━━━━━┓
┃ Layer (type)                         ┃ Output Shape                ┃         Param # ┃
┡━━━━━━━━━━━━━━━━━━━━━━━━━━━━━━━━━━━━━━╇━━━━━━━━━━━━━━━━━━━━━━━━━━━━━╇━━━━━━━━━━━━━━━━━┩
│ conv2d (Conv2D)                      │ (None, 116, 316, 6)         │             156 │
├──────────────────────────────────────┼─────────────────────────────┼─────────────────┤
│ average_pooling2d (AveragePooling2D) │ (None, 58, 158, 6)          │               0 │
├──────────────────────────────────────┼─────────────────────────────┼─────────────────┤
│ conv2d_1 (Conv2D)                    │ (None, 54, 154, 16)         │           2,416 │
├──────────────────────────────────────┼─────────────────────────────┼─────────────────┤
│ average_pooling2d_1                  │ (None, 27, 77, 16)          │               0 │
│ (AveragePooling2D)                   │                             │                 │
├──────────────────────────────────────┼─────────────────────────────┼─────────────────┤
│ flatten (Flatten)                    │ (None, 33264)               │               0 │
├──────────────────────────────────────┼─────────────────────────────┼─────────────────┤
│ dense (Dense)                        │ (None, 120)                 │       3,991,800 │
├──────────────────────────────────────┼─────────────────────────────┼─────────────────┤
│ dense_1 (Dense)                      │ (None, 84)                  │          10,164 │
├──────────────────────────────────────┼─────────────────────────────┼─────────────────┤
│ dense_2 (Dense)                      │ (None, 10)                  │             850 │
└──────────────────────────────────────┴─────────────────────────────┴─────────────────┘
 Total params: 4,005,386 (15.28 MB)
 Trainable params: 4,005,386 (15.28 MB)
 Non-trainable params: 0 (0.00 B)
Test Accuracy: 0.9980000257492065.
               precision    recall  f1-score   support

     05_thumb       1.00      1.00      1.00       220
08_palm_moved       1.00      1.00      1.00       194
…
